assets/model.tflite (tflite, 9656 bytes, 5 tensors)

sequential_1/dense_4/BiasAdd/ReadVariableOp f4 [30]
0.07150567 0.009050582 0.14102294 -0.0674011 0.17057674 0.11481639 0.04708202 0.0047953837
0.112852186 0.014009263 0.10080386 0.14030527 0.19873598 0.02542446 0.22872189 0.12996875
0.15892851 0.22396895 0.20532064 0.1622517 0.19567688 0.14765848 -0.07185358 0.03313767
0.059300672 -0.0396057 0.013917966 0.19843024 0.06542519 0.1869699
00000000: 9171 923d e448 143c 5168 103e 9709 8abd
00000010: abab 2e3e db24 eb3d 14d9 403d 9822 9d3b
00000020: 0c1f e73d 1c87 653c 4172 ce3d 2fac 0f3e
00000030: 7281 4b3e f546 d03c 1236 6a3e 8716 053e
00000040: 28be 223e 1e58 653e 933f 523e 4f25 263e
00000050: 855f 483e c933 173e f827 93bd 5ebb 073d
00000060: 43e5 723d 9639 22bd 2e08 643c 4c31 4b3e
00000070: a4fd 853d 0a75 3f3e

sequential_1/dense_3/BiasAdd/ReadVariableOp f4 [30]
0.03412204 0.022438519 0.028802669 0.040124137 -0.02814296 -0.111253254 -0.011792126 0.024365755
-0.09916169 -0.11666554 -0.04134574 -0.018408062 -0.025306588 -0.049434576 0.050322074 -0.0133456085
-0.07873251 0.015824972 -0.082274206 -0.031840805 0.12764105 -0.04167657 0.0100508295 -0.14369309
-0.14118285 0.090298064 0.095793545 -0.094858244 -0.05960021 0.037515298
00000000: 8dc3 0b3d fcd0 b73c 93f3 eb3c 3559 243d
00000010: 118c e6bc bfd8 e3bd c333 41bc b19a c73c
00000020: 4915 cbbd 58ee eebd 275a 29bd 81cc 96bc
00000030: c34f cfbc e97b 4abd 851e 4e3d 8aa7 5abc
00000040: 833e a1bd 5fa3 813c 617f a8bd 816b 02bd
00000050: 56b4 023e 0db5 2abd 3cac 243c 4824 13be
00000060: 3d92 10be 31ee b83d 682f c43d 0a45 c2bd
00000070: 5a1f 74bd a4a9 193d

sequential_1/dense_3/MatMul f4 [30, 30]
-0.057497356 0.039592527 0.21062087 0.16047034 0.15403745 -0.03175505 0.017888801 0.42771614
0.072962 -0.16744423 0.3586148 -0.12212429 0.28079262 0.18454276 0.17770109 -0.29912844
-0.023954142 0.1884941 0.1839406 -0.13440351 0.112846114 0.40349847 0.20402007 0.18192603
0.1313424 0.14528951 0.23979913 0.28500184 0.17485489 -0.077649206 -0.002660673 -0.09221476
0.043169647 0.19382884 0.09361557 -0.21237901 -0.0901327 0.26790524 0.03197079 -0.1553207
-0.05743132 -0.22548531 -0.013902707 0.065071434 0.035379887 -0.2668897 0.008417202 0.17520313
0.2121259 -0.09005995 0.41258043 0.5515231 0.42937145 -0.049840406 0.27600104 -0.12609603
0.2868954 0.38040096 0.1537085 -0.039625734 0.1293997 -0.25947392 -0.17671426 -0.34764883
0.054624677 -0.36165076 -0.25700745 0.014563786 -0.00481606 -0.060529158 -0.03701995 -0.00067916606
0.11331254 -0.22986142 0.0967438 0.2852232 -0.28565663 0.034797125 0.15352516 0.1738987
0.14076354 -0.32326037 0.16392232 -0.34166542 -0.10241024 -0.116814695 -0.024377149 -0.37580827
0.1427747 0.23539571 -0.14818385 0.0637322 0.16873331 -0.27318764 -0.20988299 0.3659206
-0.42827895 0.13906644 0.01858952 0.050670486 -0.24954334 0.11919873 -0.1247861 -0.43401042
0.13508019 0.27828044 -0.20817497 0.1185611 -0.086868376 -0.16104124 -0.13300745 -0.22340608
-0.25118935 -0.043081034 -0.28792006 -0.083006114 -0.029428931 0.17482914 -0.054928046 -0.10433296
-0.13257691 0.20775762 0.12886626 0.21486665 0.18255195 -0.2573321 -0.053073823 0.39662197
-0.113657095 0.14845525 0.32775012 -0.014954262 0.36020306 -0.09425038 -0.15792567 -0.03817184
0.20163026 -0.1497685 -0.2696321 -0.11246933 0.17253606 -0.1983571 -0.22902212 -0.22227103
-0.018742105 -0.12137641 -0.19421016 0.33463877 -0.0013286435 0.09932882 0.1468447 0.18596968
-0.13936232 -0.1898128 -0.02449857 0.20626219 -0.2651068 -0.37577742 0.19980116 0.18577822
-0.35518062 0.21545765 0.27595258 0.12416034 0.10820245 -0.04488021 0.18324433 -0.17898187
0.10084 0.052730028 -0.100051224 0.061970674 -0.04856731 -0.2911704 0.09183177 0.07604829
-0.24196759 0.040013373 0.18759532 -0.1698102 -0.27372596 0.18056907 -0.101753816 0.21938428
-0.25231108 0.01855357 -0.18980111 -0.4247968 -0.13539901 0.17114195 -0.24018076 -0.055151135
0.26324946 -0.37888 -0.022853538 0.23366797 0.3287827 -0.15494017 0.13097301 -0.029618377
-0.33491307 -0.053838402 -0.32457164 -0.06270199 -0.0015908494 0.051621396 0.16476688 -0.1392219
-0.07427937 0.10699902 0.32856727 0.07908174 -0.042878557 0.22448632 0.11992568 -0.023722852
-0.18832316 0.5527359 -0.0051611913 -0.12623 0.08628188 -0.1711993 -0.00029964652 0.36921877
-0.08381199 -0.2650156 0.23437834 -0.044606775 -0.09990971 0.12237221 0.17667198 0.37499216
0.45059547 0.07527582 0.41929963 0.13952644 0.3605783 -0.05667185 0.0052757603 -0.093429185
0.21867795 0.054747973 -0.09343088 0.36273867 -0.21513315 0.015138602 -0.09600156 0.07736356
-0.018114455 -0.031239312 0.20254108 0.022979882 -0.19407512 0.35088864 0.27735806 -0.0041127475
00000000: 5982 6bbd c62b 223d ffac 573e 5652 243e
00000010: febb 1d3e 9511 02bd 898b 923c 9cfd da3e
00000020: 1a6d 953d 8076 2bbe 5c9c b73e 4d1c fabd
00000030: 0dc4 8f3e c7f8 3c3e 46f7 353e 5d27 99be
00000040: 7a3b c4bc 9904 413e ed5a 3c3e 13a1 09be
00000050: dd1b e73d 5a97 ce3e a3ea 503e d14a 3a3e
00000060: 9f7e 063e c6c6 143e e78d 753e c3eb 913e
00000070: 290d 333e 8c06 9fbd b05e 2ebb 18db bcbd
00000080: a8d2 303d 117b 463e 85b9 bf3d e279 59be
00000090: 7e97 b8bd e02a 893e cef3 023d 640c 1fbe
000000a0: 1b3d 6bbd 9fe5 66be 2ec8 63bc 2c44 853d
000000b0: 80ea 103d c4a5 88be 4ee8 093c 7368 333e
000000c0: 8837 593e 5a71 b8bd be3d d33e 9e30 0d3f
000000d0: 93d6 db3e 7425 4cbd 0250 8d3e 511f 01be
000000e0: f4e3 923e eac3 c23e c365 1d3e 984e 22bd
000000f0: 5b81 043e c4d9 84be 95f4 34be 07ff b1be
00000100: 20be 5f3d 4a2a b9be 7b96 83be f29c 6e3c
00000110: 0ad0 9dbb 6ced 77bd 3ba2 17bd 100a 32ba
00000120: 6810 e83d cb60 6bbe 9d21 c63d c608 923e
00000130: 9641 92be 6e87 0e3d b335 1d3e 8012 323e
00000140: 5124 103e 6282 a5be 41db 273e c5ee aebe
00000150: 76bc d1bd 8b3c efbd 96b2 c7bc f169 c0be
00000160: 8833 123e 930b 713e 82bd 17be 0786 823d
00000170: 6dc8 2c3e 40df 8bbe 91eb 56be f259 bb3e
00000180: 6147 dbbe 6f67 0e3e 0d49 983c db8b 4f3d
00000190: 4a88 7fbe 771e f43d db8f ffbd 9d36 debe
000001a0: 7652 0a3e c67a 8e3e d22b 55be 29d0 f23d
000001b0: 0ce8 b1bd ffe7 24be 1b33 08be 90c4 64be
000001c0: e49b 80be bd75 30bd 426a 93be 1cff a9bd
000001d0: f114 f1bc 6906 333e 3bfc 60bd 85ac d5bd
000001e0: 3ec2 07be 6abe 543e 84f5 033e 0106 5c3e
000001f0: e6ee 3a3e 08c1 83be f063 59bd 0912 cb3e
00000200: 0dc5 e8bd a704 183e ddce a73e b902 75bc
00000210: 896c b83e 5806 c1bd 44b7 21be 135a 1cbd
00000220: 2a78 4e3e ea5c 19be 380d 8abe 5256 e6bd
00000230: 4bad 303e 201e 4bbe c684 6abe 049b 63be
00000240: 0b89 99bc 3294 f8bd 07df 46be c655 ab3e
00000250: e125 aeba e96c cb3d 755e 163e d66e 3e3e
00000260: ffb4 0ebe 495e 42be 3ab1 c8bc 6536 533e
00000270: 14bc 87be e665 c0be ad98 4c3e a53c 3e3e
00000280: 3cda b5be eea0 5c3e a849 8d3e c747 fe3d
00000290: 3f99 dd3d 50d4 37bd 67a4 3b3e 0647 37be
000002a0: 3485 ce3d 71fb 573d a8e7 ccbd f6d4 7d3d
000002b0: 84ee 46bd 4914 95be 4c12 bc3d 35bf 9b3d
000002c0: 5ac6 77be 10e5 233d fd18 403e bae2 2dbe
000002d0: cf25 8cbe 19e7 383e 4e64 d0bd 46a6 603e
000002e0: eb2e 81be a8fd 973c 395b 42be f77e d9be
000002f0: 0aa6 0abe d63f 2f3e f2f1 75be 28e6 61bd
00000300: a2c8 863e 8ffc c1be 5837 bbbc a846 6f3e
00000310: 3556 a83e a3a8 1ebe ca1d 063e 3da2 f2bc
00000320: ba79 abbe a885 5cbd 412e a6be e769 80bd
00000330: 0c84 d0ba f570 533d a6b8 283e 3090 0ebe
00000340: c81f 98bd 4d22 db3d f839 a83e 9bf5 a13d
00000350: 6da1 2fbd bedf 653e 989b f53d 6d56 c2bc
00000360: c9d7 40be 1a80 0d3f 361f a9bb 7042 01be
00000370: 8eb4 b03d df4e 2fbe e019 9db9 3e0a bd3e
00000380: 9fa5 abbd 20b0 87be e000 703e 98b5 36bd
00000390: 769d ccbd 489e fa3d 80e9 343e f9fe bf3e
000003a0: 73b4 e63e 362a 9a3d 71ae d63e 05e0 0e3e
000003b0: b89d b83e be20 68bd 49e0 ac3b cd57 bfbd
000003c0: 1ded 5f3e 693f 603d b058 bfbd e2b8 b93e
000003d0: dd4b 5cbe e607 783c 779c c4bd c970 9e3d
000003e0: c464 94bc 96e9 ffbc ee66 4f3e 4e40 bc3c
000003f0: a1bb 46be ada7 b33e e001 8e3e 3ac4 86bb

sequential_1/dense_4/MatMul f4 [30, 30]
0.002289884 -0.1086734 -0.09419491 -0.03047292 -0.26868585 0.11618501 0.37637895 -0.10016248
0.056433577 0.028388577 -0.010018872 -0.10228436 -0.05599133 -0.18822165 0.08178459 -0.30748668
-0.051297553 -0.051901985 -0.05313974 0.16183937 0.24882707 -0.056648813 0.039371893 0.22368361
-0.1486782 0.10422258 -0.10881577 -0.12597632 0.21392843 0.42078534 0.38437113 0.4757603
-0.1950241 -0.19368683 -0.07842258 -0.01687957 0.11146325 0.3483315 0.16325146 0.2937789
0.22209133 -0.115285754 0.4032249 -0.08161277 -0.2630093 0.51007164 0.15811975 -0.1166507
0.029617338 0.27462938 -0.1246399 0.44885 -0.049976036 0.051016554 0.07857621 -0.28978872
-0.03656532 0.08279542 0.22957872 -0.22784843 -0.3169235 -0.29763162 -0.15163384 -0.07614986
-0.3177493 -0.07159079 -0.21999173 -0.122572586 0.041422423 -0.10012581 0.21617828 0.1291882
-0.36169183 -0.22118275 0.20930357 -0.33128956 0.07706267 0.49079093 0.101673104 0.0126658045
0.025766399 -0.09378477 -0.10335469 0.2514289 0.010860409 0.31633726 0.08490133 -0.20031981
0.13792218 0.027100574 0.43976825 0.23437357 0.054168515 -0.1325408 0.14738055 0.047504213
-0.14089145 0.3400937 -0.016910754 0.043726694 0.122905575 0.055289008 0.01126515 0.1313672
-0.32563382 0.23863074 0.25629395 0.007007566 -0.3328086 0.20824641 0.07606258 0.41210264
0.035858747 0.2172082 -0.15153918 0.03846684 -0.15947251 0.1773687 -0.1018727 0.081649676
-0.065265864 -0.21224958 0.298536 0.29780665 -0.051409334 -0.25881526 0.24229483 -0.012574558
-0.12078429 -0.2780427 0.14479606 0.015225939 -0.29436496 0.22402567 0.37857094 -0.22197095
-0.10667338 0.41556352 -0.19825353 -0.19665158 -0.16344707 -0.23508903 0.34868214 -0.3174744
0.27409947 -0.0029838586 0.50275695 -0.04853196 -0.25445935 0.32713285 -0.2964758 -0.29345632
0.17921072 0.08803826 0.11008291 -0.023724273 0.11547856 -0.04356123 -0.2412579 -0.26792634
0.03316778 0.06260253 -0.08343571 -0.03143351 0.23621179 -0.08719586 0.08370731 0.3588384
0.17323005 -0.046687726 0.18106414 -0.012064209 -0.10794085 -0.15524307 -0.023690157 0.122657746
0.118678354 -0.06879057 0.23409909 0.45894593 0.46092567 0.035157755 -0.012085493 -0.24717233
-0.044839628 -0.17502487 -0.056161594 -0.14200974 0.22534505 0.26594135 0.32906055 -0.108190626
0.18722464 -0.2207086 -0.25108472 0.45717484 0.39491495 -0.29082406 -0.13966185 0.27111927
-0.27148065 0.4615029 0.14679539 0.13087507 0.11788213 -0.3091903 -0.30591446 -0.117764845
-0.12866586 0.13090736 0.10707074 0.096781805 -0.021052293 -0.035550866 0.35007715 0.06237609
-0.13064145 0.33064768 0.054012537 0.06534818 0.26310313 -0.19255826 0.17036353 0.07891134
-0.3070203 -0.02334554 0.29053265 -0.010058253 0.17134468 0.19043471 -0.18508945 0.42959976
-0.27242488 -0.18490182 0.13572936 -0.27080083 -0.336463 0.29509544 0.16235738 -0.045339853
-0.14078523 -0.26731154 0.21210153 -0.1092411 -0.23746437 -0.01579753 0.31505778 -0.16668253
0.13016203 0.016056206 0.035382435 -0.014340597 0.13050303 -0.18566819 0.08356008 -0.3434169
00000000: e111 163b 2990 debd 43e9 c0bd 58a2 f9bc
00000010: 3191 89be 68f2 ed3d beb4 c03e fc21 cdbd
00000020: e526 673d 298f e83c 3226 24bc 767a d1bd
00000030: 2a57 65bd 2dbd 40be ae7e a73d e56e 9dbe
00000040: 621d 52bd 2d97 54bd 0ea9 59bd 38b9 253e
00000050: 86cc 7e3e 9608 68bd 6c44 213d 510d 653e
00000060: 193f 18be a672 d53d cdda debd f0ff 00be
00000070: 0e10 5b3e 2d71 d73e 4bcc c43e db96 f33e
00000080: 66b4 47be d755 46be 059c a0bd 0647 8abc
00000090: d846 e43d 8258 b23e 642b 273e 306a 963e
000000a0: e96b 633e f01a ecbd 7e73 ce3e 9924 a7bd
000000b0: 28a9 86be 0e94 023f 25ea 213e 90e6 eebd
000000c0: 0fa0 f23c 399c 8c3e 3443 ffbd abcf e53e
000000d0: acb3 4cbd bcf6 503d 90ec a03d 305f 94be
000000e0: 84c5 15bd a590 a93d af16 6b3e 1951 69be
000000f0: cc43 a2be 2c63 98be e745 1bbe 75f4 9bbd
00000100: 09b0 a2be 319e 92bd 8345 61be 5607 fbbd
00000110: 8faa 293d c30e cdbd d75d 5d3e e949 043e
00000120: ac2f b9be bb7d 62be ad53 563e c99e a9be
00000130: 08d3 9d3d f348 fb3e fd39 d03d 3c84 4f3c
00000140: 0e14 d33c 3b12 c0bd a0ab d3bd 4abb 803e
00000150: dbef 313c f5f6 a13e c0e0 ad3d a320 4dbe
00000160: 793b 0d3e 0602 de3c 4e29 e13e a0ff 6f3e
00000170: cedf 5d3d c7b8 07be edea 163e c793 423d
00000180: d945 10be c320 ae3e 6c88 8abc c31a 333d
00000190: ebb5 fb3d ba76 623d 7791 383c 2085 063e
000001a0: 7ab9 a6be 9e5b 743e f638 833e b99f e53b
000001b0: e465 aabe 8c3e 553e b3c6 9b3d 1eff d23e
000001c0: 9fe0 123d d46b 5e3e 162d 1bbe 688f 1d3d
000001d0: c34c 23be 24a0 353e a2a2 d0bd f237 a73d
000001e0: 1caa 85bd f457 59be b6d9 983e 1d7a 983e
000001f0: 9892 52bd 6f83 84be 231c 783e 8505 4ebc
00000200: c15d f7bd 9d5b 8ebe 6b45 143e 3876 793c
00000210: 01b7 96be fc66 653e 0dd4 c13e 5a4c 63be
00000220: 9377 dabd bec4 d43e f902 4bbe 085f 49be
00000230: ab5e 27be 2ebb 70be 7786 b23e 018c a2be
00000240: c456 8c3e d78c 43bb aeb4 003f 73c9 46bd
00000250: 7f48 82be f57d a73e adcb 97be e83f 96be
00000260: 0483 373e 674d b43d 2673 e13d 6859 c2bc
00000270: 0680 ec3d 436d 32bd 500c 77be a42d 89be
00000280: f0da 073d c135 803d 57e0 aabd 6dc0 00bd
00000290: 81e1 713e be93 b2bd bd6e ab3d abb9 b73e
000002a0: 3863 313e a13b 3fbd e168 393e f6a8 45bc
000002b0: 1810 ddbd 0af8 1ebe dc11 c2bc fc33 fb3d
000002c0: a30d f33d 12e2 8cbd acb7 6f3e f6fa ea3e
000002d0: 73fe eb3e 9401 103d 3b02 46bc be1a 7dbe
000002e0: c2a9 37bd b839 33be b309 66bd 006b 11be
000002f0: dac0 663e 7729 883e a07a a83e 0c93 ddbd
00000300: d1b7 3f3e 6f01 62be 2d8e 80be d212 ea3e
00000310: 4b32 ca3e e4e6 94be 8403 0fbe 25d0 8a3e
00000320: 83ff 8abe 1c4a ec3e 8851 163e 1d04 063e
00000330: 306c f13d 314e 9ebe d2a0 9cbe b22e f1bd
00000340: fcc0 03be 940c 063e e747 db3d 8a35 c63d
00000350: dc75 acbc c99d 11bd 503d b33e 127e 7f3d
00000360: dfc6 05be a74a a93e 403c 5d3d 44d5 853d
00000370: 74b5 863e fe2d 45be c773 2e3e 459c a13d
00000380: c431 9dbe 253f bfbc b2c0 943e 5fcb 24bc
00000390: fb74 2f3e 5101 433e 1788 3dbe 80f4 db3e
000003a0: 467b 8bbe e756 3dbe a3fc 0a3e 68a6 8abe
000003b0: e144 acbe c016 973e 0341 263e 48b6 39bd
000003c0: 012a 10be 0fdd 88be 2531 593e ccb9 dfbd
000003d0: dc29 73be d269 81bc 414f a13e d3ae 2abe
000003e0: 3249 053e 4e88 833c 2ced 103d d3f4 6abc
000003f0: 96a2 053e cd1f 3ebe 8c21 ab3d 57d4 afbe

sequential_1/dense_5/MatMul f4 [1, 30]
-0.37448883 0.31091985 -0.34806484 0.30006525 -0.17093872 -0.41044608 0.41313195 0.5216643
-0.14903432 0.4935989 -0.19268675 0.22890095 -0.31631047 0.5057073 -0.20229174 -0.37196314
-0.48821893 -0.28630716 -0.20810886 -0.41397125 -0.2512003 -0.12362613 0.3741544 0.3261112
0.29417363 0.3556047 0.2343506 -0.2318347 -0.37934285 -0.26278022
00000000: 00bd bfbe e330 9f3e 8e35 b2be 27a2 993e
00000010: 8f0a 2fbe fd25 d2be 0886 d33e cb8b 053f
00000020: 749c 18be ffb8 fc3e ad4f 45be 0365 6a3e
00000030: 72f3 a1be 0976 013f 9125 4fbe f471 bebe
00000040: d5f7 f9be da96 92be 7d1a 55be 0af4 d3be
00000050: 539d 80be b22f fdbd 2a91 bf3e 0cf8 a63e
00000060: ed9d 963e d211 b63e 9bf9 6f3e 1366 6dbe
00000070: 3a39 c2be 218b 86be
